…
nits=128,activation='elu'))\n","    model.add(layers.Dense(units=labels.shape[1],activation='softmax'))\n","\n","\n","\n","    \n","\n","\n","    model.summary()\n","    \n","    return model\n","\n","model = pure_cnn_model(name = 'MCNN_combine_data')    \n","\n"],"execution_count":null,"outputs":[{"output_type":"stream","text":["Model: \"sequential_21\"\n","_________________________________________________________________\n","Layer (type)                 Output Shape              Param #   \n","=================================================================\n","conv2d_555 (Conv2D)          (None, 32, 32, 32)        896       \n","_________________________________________________________________\n","conv2d_556 (Conv2D)          (None, 32, 32, 32)        9248      \n","_________________________________________________________________\n","max_pooling2d_62 (MaxPooling (None, 16, 16, 32)        0         \n","_________________________________________________________________\n","batch_normalization_504 (Bat (None, 16, 16, 32)        128       \n","_________________________________________________________________\n","conv2d_557 (Conv2D)          (None, 16, 16, 32)        9248      \n","_________________________________________________________________\n","conv2d_558 (Conv2D)          (None, 16, 16, 32)        9248      \n","_________________________________________________________________\n","max_pooling2d_63 (MaxPooling (None, 8, 8, 32)          0         \n","_________________________________________________________________\n","batch_normalization_505 (Bat (None, 8, 8, 32)          128       \n","_________________________________________________________________\n","flatten_24 (Flatten)         (None, 2048)              0         \n","_________________________________________________________________\n","dense_70 (Dense)             (None, 256)               524544    \n","_________________________________________________________________\n","dropout_21 (Dropout)         (None, 256)               0         \n","_________________________________________________________________\n","dense_71 (Dense)             (None, 128)               32896     \n","_________________________________________________________________\n","dense_72 (Dense)             (None, 45)                5805      \n","=================================================================\n","Total params: 592,141\n","Trainable params: 592,013\n","Non-trainable params: 128\n","_________________________________________________________________\n"],"name":"stdout"}]},{"cell_type":"markdown","metadata":{"id":"klmiEHu5ow5Q"},"source":["##callbacks setting"]},{"cell_type":"code","metadata":{"id":"HB34XFfCow5Q"},
…
as.applications.VGG19(weights='imagenet',\n","                          include_top=False,\n","                          input_shape=(32, 32, 3))  \n","model = tf.keras.Sequential(base_model.layers[:12],name = 'VGG19_combine_data_v2')\n","model.summary()"],"execution_count":null,"outputs":[{"output_type":"stream","text":["Model: \"VGG19_combine_data_v2\"\n","_________________________________________________________________\n","Layer (type)                 Output Shape              Param #   \n","=================================================================\n","block1_conv1 (Conv2D)        (None, 32, 32, 64)        1792      \n","_________________________________________________________________\n","block1_conv2 (Conv2D)        (None, 32, 32, 64)        36928     \n","_________________________________________________________________\n","block1_pool (MaxPooling2D)   (None, 16, 16, 64)        0         \n","_________________________________________________________________\n","block2_conv1 (Conv2D)        (None, 16, 16, 128)       73856     \n","_________________________________________________________________\n","block2_conv2 (Conv2D)        (None, 16, 16, 128)       147584    \n","_________________________________________________________________\n","block2_pool (MaxPooling2D)   (None, 8, 8, 128)         0         \n","_________________________________________________________________\n","block3_conv1 (Conv2D)        (None, 8, 8, 256)         295168    \n","_________________________________________________________________\n","block3_conv2 (Conv2D)        (None, 8, 8, 256)         590080    \n","_________________________________________________________________\n","block3_conv3 (Conv2D)        (None, 8, 8, 256)         590080    \n","_________________________________________________________________\n","block3_conv4 (Conv2D)        (None, 8, 8, 256)         590080    \n","_________________________________________________________________\n","block3_pool (MaxPooling2D)   (None, 4, 4, 256)         0         \n","=================================================================\n","Total params: 2,325,568\n","Trainable params: 2,325,568\n","Non-trainable params: 0\n","_________________________________________________________________\n"],"name":"stdout"}]},{"cell_type":"markdown","metadata":{"id":"7OGo8ovdow5U"},"source":[""]},{"cell_type":"markdown","metadata":{"id":"bvYecpV-vLjh"},"source":[
…
